…
Fri 29 Nov 2024 15:02:22 INFO  [Evaluation]: eval_batch_size = [512] eval_args: [{'split': {'LS': 'valid_and_test'}, 'order': 'TO', 'group_by': 'user', 'mode': {'valid': 'full', 'test': 'full'}}]
Fri 29 Nov 2024 15:02:24 INFO  [Training]: train_batch_size = [512] train_neg_sample_args: [{'distribution': 'none', 'sample_num': 'none', 'alpha': 'none', 'dynamic': False, 'candidate_num': 0}]
Fri 29 Nov 2024 15:02:24 INFO  [Evaluation]: eval_batch_size = [512] eval_args: [{'split': {'LS': 'valid_and_test'}, 'order': 'TO', 'group_by': 'user', 'mode': {'valid': 'full', 'test': 'full'}}]
Fri 29 Nov 2024 15:02:29 INFO  GSAU(
  (embedding_layer): EmbeddingLayer(
    (user_embedding): Embedding(19413, 64, padding_idx=0)
    (item_embedding): Embedding(11925, 64, padding_idx=0)
  )
  (graph_encoder): LightGCNEncoder(
    (embedding_layer): EmbeddingLayer(
      (user_embedding): Embedding(19413, 64, padding_idx=0)
      (item_embedding): Embedding(11925, 64, padding_idx=0)
    )
  )
  (loss_fct): CrossEntropyLoss()
  (sequential_encoder): SASRecEncoder(
    (item_embedding): Embedding(11925, 64, padding_idx=0)
    (position_embedding): Embedding(50, 64)
    (trm_encoder): TransformerEncoder(
      (layer): ModuleList(
        (0-1): 2 x TransformerLayer(
          (multi_head_attention): MultiHeadAttention(
            (query): Linear(in_features=64, out_features=64, bias=True)
            (key): Linear(in_features=64, out_features=64, bias=True)
            (value): Linear(in_features=64, out_features=64, bias=True)
            (softmax): Softmax(dim=-1)
            (attn_dropout): Dropout(p=0.5, inplace=False)
            (dense): Linear(in_features=64, out_features=64, bias=True)
            (LayerNorm): LayerNorm((64,), eps=1e-12, elementwise_affine=True)
            (out_dropout): Dropout(p=0.5, inplace=False)
          )
          (feed_forward): FeedForward(
            (dense_1): Linear(in_features=64, out_features=256, bias=True)
            (dense_2): Linear(in_features=256, out_features=64, bias=True)
            (LayerNorm): LayerNorm((64,), eps=1e-12, elementwise_affine=True)
            (dropout): Dropout(p=0.5, inplace=False)
          )
        )
      )
    )
    (LayerNorm): LayerNorm((64,), eps=1e-12, elementwise_affine=True)
    (dropout): Dropout(p=0.5, inplace=False)
  )
)
Trainable parameters: 2108928
Fri 29 Nov 2024 15:03:11 INFO  epoch 0 training [time: 41.22s, train loss: 2153.3242]
Fri 29 Nov 2024 15:03:12 INFO  epoch 0 evaluating [time: 0.34s, valid_score: 0.001400]
Fri 29 Nov 2024 15:03:12 INFO  valid result: 
recall@50 : 0.0094    recall@40 : 0.0076    recall@20 : 0
…
